iris.tflite (tflite, 20204 bytes, 5 tensors)

dense/bias f4 [64]
0.0 -0.020788753 0.016425746 -0.016679823 -0.06452483 0.095325924 0.028271079 0.0591132
0.0 -0.0006775143 0.0035968272 -0.04564546 0.00443365 0.0 0.0 -0.019970024
0.018120531 0.0 -0.071901105 -0.1339223 0.042465348 0.0 0.04757357 0.0
0.064029075 0.0092387395 0.0 0.0 -0.02659238 0.0 -0.032682423 0.0
-0.025338303 0.0 -0.031432763 0.0 -0.0112632 0.0 0.020771282 0.013600251
0.0 0.06945095 0.0 0.0 -0.025628364 0.0 -0.012808615 0.0
0.0 0.0 0.0 -0.003392031 0.0 -0.018258708 0.05549262 0.035304543
-0.021819307 -0.006855899 0.0 -0.0041274563 0.0 0.0 -0.0025618721 0.022701431
00000000: 0000 0000 2d4d aabc 498f 863c 20a4 88bc
00000010: 9825 84bd 3d3a c33d c098 e73c af20 723d
00000020: 0000 0000 379b 31ba bfb8 6b3b bcf6 3abd
00000030: 2748 913b 0000 0000 0000 0000 2d98 a3bc
00000040: 8271 943c 0000 0000 e340 93bd ed22 09be
00000050: 25f0 2d3d 0000 0000 81dc 423d 0000 0000
00000060: ad21 833d 155e 173c 0000 0000 0000 0000
00000070: 43d8 d9bc 0000 0000 01de 05bd 0000 0000
00000080: 4692 cfbc 0000 0000 a4bf 00bd 0000 0000
00000090: 4989 38bc 0000 0000 8928 aa3c 96d3 5e3c
000000a0: 0000 0000 4d3c 8e3d 0000 0000 0000 0000
000000b0: 93f2 d1bc 0000 0000 3adb 51bc 0000 0000
000000c0: 0000 0000 0000 0000 0000 0000 d64c 5ebb
000000d0: 0000 0000 4993 95bc 3b4c 633d 7f9b 103d
000000e0: 67be b2bc 73a7 e0bb 0000 0000 9d3f 87bb
000000f0: 0000 0000 0000 0000 15e5 27bb 5af8 b93c

sequential/dense/MatMul f4 [64, 4]
-0.20082122 0.21948266 -0.0070129633 -0.14074884 -0.08389553 -0.008755765 0.35999402 0.077134416
0.30168828 0.053603597 0.010920508 0.19515821 0.0058061937 0.028828291 0.10577554 -0.00013396307
-0.08376469 -0.12691915 0.26971743 0.32074624 0.43155032 0.4255635 -0.48243174 -0.36575353
0.30733237 0.04123339 -0.47124544 -0.024425488 0.36491165 0.37262675 -0.369223 0.0700683
0.020518005 -0.079744875 -0.041032404 -0.2365197 0.22969474 -0.14184943 0.18093869 -0.19568118
0.25007713 0.094929196 0.23529822 0.23056397 -0.21197978 0.12982006 0.37481192 0.2630441
0.12133767 -0.05726389 -0.02175304 0.12499209 -0.2970134 -0.09371258 0.2237876 0.039420456
-0.21318775 0.24102801 -0.06251189 0.128328 -0.027959356 -0.17816256 0.3919348 0.3277153
0.2797638 0.123167925 0.058485087 -0.08994088 -0.2541017 -0.21277055 0.17655468 0.2618596
0.12806341 -0.34452012 0.31230393 0.34114355 -0.23250876 -0.2971225 0.43333867 0.45962858
0.24470001 0.0034860468 -0.22236562 -0.079493284 -0.26812953 -0.28098452 0.109644175 0.16958582
0.0016642642 0.2742516 -0.05141784 -0.22914645 -0.2032462 0.12304482 -0.013049096 -0.04716082
0.3417138 0.21561402 -0.3715667 -0.28677222 -0.22895448 0.23845668 0.26065165 -0.27889216
-0.26876366 -0.23134361 -0.11492252 0.15729061 -0.25014323 -0.07165606 0.18166369 -0.12737715
-0.0665936 0.16993372 0.052110847 0.24144141 -0.08971539 0.14379528 -0.17950861 0.16484061
-0.22844936 0.123785086 0.33505777 0.031756766 -0.16229467 -0.09029414 -0.27088538 0.007183373
0.03437235 -0.19246112 0.22450681 0.05627444 0.027607381 -0.17505327 -0.22973421 0.037933797
-0.21739411 0.19944972 0.20161028 0.37548807 -0.29101422 0.08308074 0.087423265 -0.22581972
0.20951006 -0.29283717 0.118266866 0.18795766 -0.10622196 -0.1992796 -0.2565477 0.07837653
0.09679428 -0.17798169 0.28581926 -0.22239652 0.18938445 0.15611044 0.10295025 -0.071488604
-0.12882699 -0.04510036 0.018037945 -0.13377447 0.2697627 0.13523006 -0.32639056 -0.110425286
-0.17203417 0.23179072 -0.21432996 0.17252049 -0.16050588 -0.2633632 0.090890646 -0.1693366
0.16678594 0.20194735 0.2568687 0.23160298 -0.102990404 -0.040042043 0.065662414 0.031247884
0.19274348 -0.24278916 0.004427262 0.09713409 -0.2854205 -0.24417664 0.2639389 0.18812254
-0.20134686 -0.134463 -0.104267314 0.1184856 -0.13468727 -0.003360957 0.11531332 -0.1645409
-0.20249167 0.13950622 -0.18749791 -0.16086012 0.03898126 0.034345593 -0.27715477 0.018608827
-0.28158954 0.16688782 0.0479286 0.27445966 0.043339122 0.04835802 0.21611048 0.061006155
0.3544046 0.19415686 -0.36345652 -0.22339834 0.3092711 0.0025476515 -0.06761748 0.15382186
0.034905445 -0.1797837 0.32361847 0.010176508 0.27010497 -0.20892473 0.12899391 -0.04983525
-0.09358142 -0.24230611 -0.23998694 0.29610515 -0.10347944 0.20471668 -0.13367996 -0.20703478
-0.08839379 -0.16136579 -0.16248454 -0.113108724 -0.016169757 -0.20790473 -0.13040921 -0.20038979
0.07132 -0.06997022 -0.08152562 -0.19422261 0.3272992 -0.16540289 -0.2768599 -0.3353737
00000000: 14a4 4dbe 10c0 603e 00cd e5bb 7720 10be
00000010: 6bd1 abbd 5774 0fbc 2351 b83e a6f8 9d3d
00000020: e376 9a3e 728f 5b3d eeeb 323c 8ed7 473e
00000030: e241 be3b 4f29 ec3c d9a0 d83d 7078 0cb9
00000040: d28c abbd 18f7 01be 6718 8a3e da38 a43e
00000050: 2af4 dc3e 76e3 d93e 4b01 f7be 0c44 bbbe
00000060: ab5a 9d3e 58e4 283d 1547 f1be f617 c8bc
00000070: b3d5 ba3e efc8 be3e cc0a bdbe f87f 8f3d
00000080: 6015 a83c 4851 a3bd 9811 28bd 3832 72be
00000090: 1935 6b3e fa40 11be fe47 393e a660 48be
000000a0: 1c0a 803e 3d6a c23d 04f2 703e f618 6c3e
000000b0: 3a11 59be 8def 043e 59e7 bf3e b7ad 863e
000000c0: e27f f83d 8a8d 6abd 6e33 b2bc dafb ff3d
000000d0: 2412 98be 62ec bfbd 9428 653e 5877 213d
000000e0: e44d 5abe 0cd0 763e 3c06 80bd 6a68 033e
000000f0: 050b e5bc 3f70 36be aeab c83e 4dca a73e
00000100: 333d 8f3e 773f fc3d 0f8e 6f3d ed32 b8bd
00000110: 9e19 82be 86e0 59be c0ca 343e 7612 863e
00000120: 0e23 033e f164 b0be 4de6 9f3e 5eaa ae3e
00000130: c716 6ebe 7120 98be 91de dd3e 7054 eb3e
00000140: a492 7a3e 2976 643b d0b3 63be 60cd a2bd
00000150: 4648 89be 34dd 8fbe 208d e03d e8a7 2d3e
00000160: 7123 da3a b56a 8c3e 839b 52bd 5ea5 6abe
00000170: c61f 50be ecfe fb3d e0cb 55bc b42b 41bd
00000180: 1cf5 ae3e ecc9 5c3e fe3d bebe cfd3 92be
00000190: 0b73 6abe fd2d 743e 2274 853e f4ca 8ebe
000001a0: 649b 89be 57e5 6cbe 805c ebbd ca10 213e
000001b0: c612 80be 6ac0 92bd 0c06 3a3e 286f 02be
000001c0: 3a62 88bd 1b03 2e3e 2f72 553d 6b3c 773e
000001d0: b4bc b7bd 123f 133e 1bd1 37be facb 283e
000001e0: a1ee 69be 0983 fd3d b18c ab3e 6213 023d
000001f0: 9330 26be 22ec b8bd 7db1 8abe 8062 eb3b
00000200: 05ca 0c3d 8714 45be 1de5 653e 0780 663d
00000210: e028 e23c 2a41 33be 723f 6bbe 7860 1b3d
00000220: 909c 5ebe 8c3c 4c3e ed72 4e3e f93f c03e
00000230: d1ff 94be 3c26 aa3d f80a b33d 493d 67be
00000240: ce89 563e c1ee 95be e635 f23d f977 403e
00000250: e68a d9bd f40f 4cbe 385a 83be e083 a03d
00000260: 143c c63d d540 36be e756 923e eabb 63be
00000270: ffed 413e 6adb 1f3e 95d7 d23d 9e68 92bd
00000280: 39eb 03be 28bb 38bd 50c4 933c 2dfc 08be
00000290: 561e 8a3e c079 0a3e aa1c a7be a726 e2bd
000002a0: ba29 30be 8c5a 6d3e 5079 5bbe 36a9 303e
000002b0: a75b 24be 8bd7 86be e024 ba3d 9366 2dbe
000002c0: efc9 2a3e 49cb 4e3e 4b84 833e 5529 6d3e
000002d0: a2ec d2bd 2003 24bd 047a 863d 90fb ff3c
000002e0: 8c5e 453e b99d 78be 9112 913b 3dee c63d
000002f0: a322 92be 7109 7abe 0023 873e 32a3 403e
00000300: df2d 4ebe abb0 09be 1a8a d5bd 94a8 f23d
00000310: 76eb 09be 8043 5cbb 6429 ec3d 697d 28be
00000320: fa59 4fbe b8da 0e3e 74ff 3fbe 84b8 24be
00000330: d0aa 1f3d f7ad 0c3d 3be7 8dbe 8a71 983c
00000340: 812c 90be a4e4 2a3e c850 443d fa85 8c3e
00000350: 5d84 313d 0f13 463d 114c 5d3e 97e1 793d
00000360: 8574 b53e 0ed1 463e f916 babe 89c2 64be
00000370: c858 9e3e 80f6 263b 097b 8abd 7a83 1d3e
00000380: 03f9 0e3d 3819 38be 52b1 a53e 5ebb 263c
00000390: 334b 8a3e 5df0 55be fb16 043e 0c20 4cbd
000003a0: 9ea7 bfbd 181f 78be 23bf 75be 189b 973e
000003b0: 07ed d3bd 40a1 513e 66e3 08be ed00 54be
000003c0: ce07 b5bd 133d 25be 5962 26be 8ca5 e7bd
000003d0: 7076 84bc fae4 54be fe89 05be fb32 4dbe
000003e0: 3810 923d 8c4c 8fbd e7f6 a6bd 4be2 46be
000003f0: c393 a73e 605f 29be 95c0 8dbe 1ab6 abbe

sequential/dense_1/MatMul f4 [64, 64]
0.20655786 -0.19748095 0.18902783 -0.09334071 -0.13003385 -0.10266497 0.05751928 2.4462717e-05
-0.029757395 -0.2110759 0.17844383 -0.19939493 0.17418216 0.13988547 0.15637858 0.018480502
0.0637102 -0.15498114 -0.05414963 -0.026588436 0.1055818 -0.09417932 0.01285152 0.17263214
0.12287491 -0.11270498 0.19661625 -0.028972268 0.009485199 -0.01360175 0.05900155 -0.13107884
-0.18999234 0.010040075 0.016584363 0.046351448 0.16292997 0.088099256 -0.14067489 -0.01209243
-0.16972676 0.057490364 -0.010189518 -0.16460934 0.19096369 -0.11756692 0.0741605 -0.061530113
0.16404895 0.20948564 -0.10305693 0.17126353 -0.07313751 0.068687424 0.08326057 0.11677926
-0.12483635 0.055672683 -0.17596003 -0.010768949 0.13891365 -0.07205215 -0.103392296 -0.035813194
0.20809092 0.23911792 -0.084798954 0.17754735 -0.12754077 0.015390752 0.017171817 -0.020377448
-0.19185872 -0.0965169 0.1766761 -0.0032265515 0.11969637 -0.03799045 -0.19900508 -0.062405784
0.0945207 -0.17831996 0.16024253 -0.1556669 0.15893114 -0.19480515 -0.02975656 0.18506162
-0.23362122 0.17433736 -0.051418185 0.07575981 -0.106687434 0.02962324 -0.0053406656 -0.11158405
0.11763621 0.1200404 0.20962667 -0.21518278 -0.15412349 0.0014306307 0.114755526 -0.09200408
-0.010378435 -0.006459403 0.09382139 0.17180665 -0.097336136 -0.06409073 -0.06760257 -0.16334169
0.16364412 0.1523162 -0.16959214 -0.15026234 -0.09845122 0.005533028 -0.18886186 0.07103664
-0.1054853 0.10666951 0.087449625 0.057747297 0.11420588 -0.026582196 0.09174991 -0.049891613
0.17244042 0.0922158 0.1707811 0.06473298 0.0810254 -0.07961157 -0.2170618 0.09688684
-0.09565057 0.122058235 -0.16649702 0.0493596 0.01666442 0.12175389 0.142749 0.13408257
0.005212222 -0.002751872 0.2343331 -0.09585348 0.13360432 -0.123529494 -0.23241065 0.17229135
-0.13045153 -0.0015501038 0.13385858 0.12884869 -0.16658838 0.06401311 -0.069524035 -0.073066995
-0.13081317 -0.13992734 -0.14055026 -0.021860138 0.009346511 -0.17714697 -0.00038007117 0.1742743
0.14833336 0.04458089 0.213078 0.09572123 -0.105514355 -0.13124573 0.10337527 -0.093906924
-0.14641804 -0.16653283 -0.03994222 0.18786545 0.1648982 -0.17244017 -0.18159272 -0.20168832
0.19668756 0.15975152 -0.055166513 -0.17730278 0.08381431 0.06356464 0.15297997 0.1121275
-0.20691139 -0.14460942 0.13674876 -0.11585175 -0.10528644 0.29726693 -0.019800907 0.008074011
0.17386626 0.19886963 0.07609085 -0.21178553 -0.025043571 0.13848491 0.031542286 -0.26434192
0.22134142 0.17293979 -0.27903265 -0.23342974 0.10948135 0.08519532 0.22911802 -0.038938433
0.111960575 -0.094156794 0.2154306 0.028402299 -0.2283425 -0.02480176 -0.17292413 0.18539776
0.0817882 -0.06150487 -0.28993756 -0.17605975 0.019728003 0.15803628 0.122653715 -0.16048329
-0.197394 0.2896609 0.0034882724 0.045265898 -0.08717566 -0.1798468 -0.15981504 0.11615209
0.13008733 0.045845732 -0.01173535 -0.15136103 0.16090067 0.092595 0.112320416 -0.051796354
-0.24943267 0.15333161 0.0216707 -0.01528328 0.008998871 -0.10875316 0.017370177 0.18179163
00000000: e783 533e 7238 4abe 8390 413e 6a29 bfbd
00000010: 9827 05be 0342 d2bd 5699 6b3d 4935 cd37
00000020: c8c5 f3bc 4824 58be fbb9 363e 2f2e 4cbe
00000030: cf5c 323e 233e 0f3e b521 203e 6c64 973c
00000040: 7e7a 823d 60b3 1ebe 01cc 5dbd fecf d9bc
00000050: 453b d83d 16e1 c0bd 2f8f 523c 7bc6 303e
00000060: d7a5 fb3d ded1 e6bd c555 493e 4057 edbc
00000070: cf67 1b3c e0d9 5ebc 9cab 713d 8839 06be
00000080: 5a8d 42be 207f 243c eedb 873c 04db 3d3d
00000090: 1dd7 263e 626d b43d 140d 10be 541f 46bc
000000a0: dacc 2dbe 047b 6b3d f0f1 26bc 5a8f 28be
000000b0: fc8b 433e edc6 f0bd 76e1 973d 0007 7cbd
000000c0: 73fc 273e 6783 563e 830f d3bd b55f 2f3e
000000d0: 1ec9 95bd feab 8c3d 8584 aa3d f729 ef3d
000000e0: 33aa ffbd 0a09 643d de2e 34be 3f70 30bc
000000f0: 613f 0e3e 1490 93bd 57bf d3bd dbb0 12bd
00000100: c915 553e 54db 743e 13ab adbd f9ce 353e
00000110: 0c9a 02be 7e29 7c3c e9ab 8c3c 9bee a6bc
00000120: 9d76 44be a7aa c5bd 94ea 343e 8d74 53bb
00000130: 5f23 f53d e09b 1bbd fdc7 4bbe 359d 7fbd
00000140: 1294 c13d 8299 36be 9e16 243e 2567 1fbe
00000150: d8be 223e 007b 47be 08c4 f3bc cb80 3d3e
00000160: 673a 6fbe 7e85 323e e09b 52bd f627 9b3d
00000170: f17e dabd 70ac f23c c000 afbb 2e86 e4bd
00000180: 41eb f03d bed7 f53d 60a8 563e e058 5cbe
00000190: 8cd2 1dbe 0084 bb3a f204 eb3d a36c bcbd
000001a0: 500a 2abc 66a9 d3bb 6e25 c03d 15ee 2f3e
000001b0: 2b58 c7bd 0042 83bd 3773 8abd 0b43 27be
000001c0: 5392 273e c7f8 1b3e 90a9 2dbe 5fde 19be
000001d0: cba0 c9bd 674e b53b 0165 41be a87b 913d
000001e0: ad08 d8bd 8b75 da3d ca18 b33d 6e88 6c3d
000001f0: c6e4 e93d e8c2 d9bc 60e7 bb3d 265b 4cbd
00000200: 3994 303e a3db bc3d 3ee1 2e3e ba92 843d
00000210: a5f0 a53d 640b a3bd 7345 5ebe 9c6c c63d
00000220: 72e4 c3bd abf9 f93d 327e 2abe 4b2d 4a3d
00000230: d283 883c 1a5a f93d cb2c 123e f14c 093e
00000240: 4acb aa3b c058 34bb 04f5 6f3e d44e c4bd
00000250: 92cf 083e 08fd fcbd 0ffd 6dbe 256d 303e
00000260: 1695 05be da2c cbba 3912 093e e9f0 033e
00000270: 2596 2abe 4e19 833d 9e62 8ebd 26a4 95bd
00000280: e3f3 05be 1d49 0fbe 68ec 0fbe 0814 b3bc
00000290: 1c22 193c 0466 35be 4a44 c7b9 f674 323e
000002a0: b3e4 173e 749a 363d 1f31 5a3e 7e09 c43d
000002b0: e917 d8bd 4865 06be 6ab6 d33d 4652 c0bd
000002c0: 9cee 15be 9587 2abe 749a 23bd cd5f 403e
000002d0: 13db 283e 2894 30be 71f3 39be 6287 4ebe
000002e0: 7768 493e e795 233e 48f6 61bd dc8e 35be
000002f0: d6a6 ab3d 2e2e 823d c8a6 1c3e 1aa3 e53d
00000300: 94e0 53be 7e14 14be de07 0c3e af43 edbd
00000310: 6ba0 d7bd 5f33 983e 8335 a2bc db48 043c
00000320: ff09 323e 7ba4 4b3e 85d5 9b3d 4ede 58be
00000330: 2d28 cdbc fdce 0d3e 7c32 013d d357 87be
00000340: 53a7 623e 2117 313e 5edd 8ebe 3508 6fbe
00000350: c237 e03d e27a ae3d ea9d 6a3e e87d 1fbd
00000360: 964b e53d 47d5 c0bd d799 5c3e f0ab e83c
00000370: 9ed2 69be 102d cbbc 0613 31be e9d8 3d3e
00000380: 9280 a73d 88ec 7bbd b272 94be 0249 34be
00000390: 9f9c a13c 43d4 213e df31 fb3d bb55 24be
000003a0: a721 4abe 6f4e 943e 809b 643b bc68 393d
000003b0: 2789 b2bd c229 38be 8ea6 23be 26e1 ed3d
000003c0: 9d35 053e bcc8 3b3d a045 40bc 63fe 1abe
000003d0: 25c3 243e 73a2 bd3d 3f08 e63d 6a28 54bd
000003e0: 476b 7fbe f602 1d3e c086 b13c b966 7abc
000003f0: 0070 133c fab9 debd e74b 8e3c 9627 3a3e

sequential/dense_2/MatMul f4 [3, 64]
0.098819606 -0.18456683 -0.30603048 0.43491784 -0.10550311 0.374911 0.08601502 0.105083704
0.20927669 0.086604476 -0.19367008 -0.060114983 0.32171372 -0.036169942 0.25185424 0.07809065
0.2869568 -0.06375345 -0.03963729 -0.04934801 -0.15273388 -0.14412186 0.1490959 -0.2665538
0.33865178 0.3736868 0.29237592 0.12625833 0.33502084 0.24823602 0.24713834 -0.13210237
0.03616157 -0.1342596 0.2216588 -0.26284602 0.007267055 -0.18238693 -0.16974588 0.22071177
0.11347094 -0.09841461 0.4134691 -0.2257696 -0.13255909 0.30214104 -0.21795583 0.19845392
-0.30398422 -0.3973011 -0.050560042 0.21014594 0.17266443 -0.01882212 0.30016246 -0.21591824
-0.32340357 -0.055346314 -0.17936988 -0.025055872 -0.20950244 0.00367248 0.07842502 0.08579401
0.072697595 0.05467302 0.10867183 0.37531853 0.03839332 0.28943053 0.1348292 -0.3220221
-0.17012672 0.16365269 0.027466515 -0.045461025 -0.28873175 0.0014916023 0.30058575 0.26846412
0.11818979 -0.28299105 0.23002759 0.16516294 -0.33037436 0.26103258 0.3447433 -0.1259548
0.14487956 0.10419625 -0.16934289 0.12856561 0.34927323 0.14604191 0.07746441 0.2500521
0.23431236 0.037972484 -0.17853759 -0.20407109 0.056938402 -0.032158677 -0.20986538 0.1259303
0.32022434 -0.067447536 -0.28202933 0.112879485 0.27558225 -0.23827404 0.19671161 0.065632224
-0.1370742 0.30491263 -0.051291548 0.1767012 0.17766221 -0.24214616 0.17505306 0.2665412
-0.118750244 0.18827337 -0.070113234 0.19812024 0.06755812 0.20291731 0.31268045 -0.075947344
0.04780752 0.1286153 0.27443266 -0.5414789 0.19942357 -0.40693316 -0.29615775 0.30426723
0.28469056 0.3099867 -0.15787421 0.06717441 0.15075254 0.0054673282 -0.030183079 -0.31911477
-0.07081861 0.34024137 0.21960355 0.19370952 0.42642385 0.23595805 -0.07911646 0.38775364
-0.1594689 -0.22051437 -0.13318595 -0.13823947 -0.45755342 -0.422459 -0.11540126 0.18526816
0.22108342 -0.10721458 -0.30123475 0.02869258 0.23255512 -0.16422965 -0.21422963 -0.23900643
-0.031548616 0.09781219 -0.31754163 0.013008592 -0.20025285 -0.16112806 0.21742699 -0.04606911
-0.036287814 0.11471013 -0.07717891 -0.07051765 0.06728778 0.30682305 -0.12413766 -0.15060139
0.06414105 0.13788186 -0.037247885 0.30839324 0.14804439 0.20347127 0.34252828 -0.24922247
00000000: ef61 ca3d 16ff 3cbe 07b0 9cbe 8dad de3e
00000010: 0412 d8bd 56f4 bf3e a528 b03d 2036 d73d
00000020: a14c 563e b05d b13d 7351 46be 213b 76bd
00000030: a9b7 a43e ef26 14bd 0af3 803e feed 9f3d
00000040: 00ec 923e 2b91 82bd b65a 22bd 2421 4abd
00000050: 4566 1cbe ae94 13be 98ac 183e bd79 88be
00000060: c463 ad3e e053 bf3e 4cb2 953e dd49 013e
00000070: da87 ab3e 9531 7e3e d511 7d3e d845 07be
00000080: 281e 143d 597b 09be 86fa 623e c193 86be
00000090: 7a20 ee3b a4c3 3abe ddd1 2dbe 4402 623e
000000a0: 7463 e83d 998d c9bd 39b2 d33e 2530 67be
000000b0: 92bd 07be 3bb2 9a3e d02f 5fbe 8137 4b3e
000000c0: d2a3 9bbe 0d6b cbbe 0c18 4fbd 7f30 573e
000000d0: f2ce 303e d930 9abc e5ae 993e ac19 5dbe
000000e0: 2795 a5be d1b2 62bd bdac 37be f941 cdbc
000000f0: cf87 56be fdad 703b 4c9d a03d c5b4 af3d
00000100: 7ae2 943d d1f0 5f3d 568f de3d c029 c03e
00000110: 5042 1d3d 3d30 943e aa10 0a3e 15e0 a4be
00000120: b335 2ebe 9294 273e 7501 e13c 5735 3abd
00000130: a6d4 93be de81 c33a 60e6 993e 2174 893e
00000140: 7d0d f23d 34e4 90be 5a8c 6b3e 7920 293e
00000150: d426 a9be 10a6 853e 3282 b03e 4cfa 00be
00000160: 4f5b 143e d864 d53d 3968 2dbe b4a6 033e
00000170: f1d3 b23e 038c 153e a9a5 9e3d d406 803e
00000180: 94ef 6f3e 0989 1b3d 8fd2 36be 03f8 50be
00000190: 3e38 693d d1b8 03bd f3e6 56be dff3 003e
000001a0: 72f4 a33e ef21 8abd 2666 90be 5c2d e73d
000001b0: 1e19 8d3e 1cfe 73be c56e 493e 306a 863d
000001c0: 2e5d 0cbe 821d 9c3e 1617 52bd 29f1 343e
000001d0: 15ed 353e 2af5 77be 1c41 333e 1778 883e
000001e0: 5433 f3bd bcca 403e 8797 8fbd 08e0 4a3e
000001f0: e95b 8a3d 8ec9 4f3e a717 a03e 488a 9bbd
00000200: d1d1 433d bbb3 033e 7082 8c3e 5c9e 0abf
00000210: b135 4c3e 8b59 d0be fda1 97be eac8 9b3e
00000220: f6c2 913e 94b6 9e3e c7a9 21be bd92 893d
00000230: e05e 1a3e 4627 b33b 8142 f7bc 0363 a3be
00000240: 5909 91bd 1e34 ae3e c1df 603e ca5b 463e
00000250: 3a54 da3e fd9e 713e d007 a2bd a587 c63e
00000260: d14b 23be 85ce 61be e661 08be a68e 0dbe
00000270: 7144 eabe 8c4c d8be 7f57 ecbd f0b6 3d3e
00000280: b163 623e 5193 dbbd 713b 9abe b40c eb3c
00000290: ee22 6e3e d12b 28be 035f 5bbe 1abe 74be
000002a0: 1f39 01bd c251 c83d d194 a2be fd21 553c
000002b0: 150f 4dbe c1fe 24be 2ea5 5e3e f7b2 3cbd
000002c0: 88a2 14bd 25ed ea3d fa0f 9ebd 8f6b 90bd
000002d0: 2dce 893d e917 9d3e e33b febd 4037 1abe
000002e0: 625c 833d e730 0d3e 3d91 18bd b8e5 9d3e
000002f0: f398 173e c65a 503e de5f af3e 2d34 7fbe

sequential/dense_2/MatMul;sequential/dense_2/BiasAdd f4 [3]
0.27766868 0.285035 -0.48604065
00000000: 972a 8e3e 1cf0 913e 52da f8be
